…
add(keras.layers.Dense(100, activation='relu')) #은닉층model.add(keras.layers.Dropout(0.4)) # 40% 드롭아웃model.add(keras.layers.Dense(10, activation='softmax')) #출력층 은닉층과 출력층 사이에 드롭아웃을 넣어 은닉층의 과대적합을 막아 성능을 개선할 수 있다.은닉층에 100개의 뉴런을 사용하고 렐루 활성화 함수를 사용한다.클래스 10개를 분류할 다중 분류 문제이기 때문에 출력층의 활성화 함수는 소프트맥스 함수를 사용한다. 3. 모델 구조 확인하기summary() 메서드로 모델 구조를 확인할 수 있다. 1model.summary() 1234567891011121314151617Model: &quot;sequential&quot;_________________________________________________________________ Layer (type) Output Shape Param # ================================================================= conv2d (Conv2D) (None, 28, 28, 32) 320 max_pooling2d (MaxPooling2D) (None, 14, 14, 32) 0 conv2d_1 (Conv2D) (None, 14, 14, 64) 18496 max_pooling2d_1 (MaxPooling2D) (None, 7, 7, 64) 0 flatten (Flatten) (None, 3136) 0 dense (Dense) (None, 100) 313700 dropout (Dropout) (None, 100) 0 dense_1 (Dense) (None, 10) 1010 =================================================================Total params: 333,526Trainable params: 333,526Non-trainable params: 0_________________________________________________________________ 각 층의 파라미터의 개수를 계산할 수 있다. 첫 번째 합성곱 층은 32개의 필터를 가지고 있고 크기가 (3,3), 깊이가 1이다. 또 필터마다 하나의 절편이 있다. 3x3x1x32+32 = 320개의 파라미터가 있다. 두 번째 합성곱 층은 64개의 필터, 크기 (3,3), 깊이 32이다. 필터마다 하나의 절편이 존지하므로 3x3x32x64+64 = 184
…
